embeddings/sdgnn-attention/best_model-bitcoin_alpha-1.pt (torch, 821151 bytes, 146 tensors)

log_vars f4 [3]
0	0x00000000	0.0
1	0x00000000	0.0
2	0x00000000	0.0

enc.agg_0.a f4 [40, 1]
0	0xbe9ef764	-0.3104812
1	0xbfefebf6	-1.8743885
2	0xc01e865c	-2.4769506
3	0xbf1dcec2	-0.6164361
4	0x3e6e3239	0.23261346
5	0xbf21bb7f	-0.6317672
6	0xbe03fcdf	-0.12889431
7	0xc02e85bd	-2.7269127
8	0x3e261686	0.1621953
9	0xbf0c1864	-0.5472472
10	0xbfa68ed6	-1.301234
11	0xc005c754	-2.090291
12	0xbf0cff05	-0.5507663
13	0xbf937a06	-1.1521614
14	0xbd81609a	-0.063172534
15	0x3f32743a	0.697086
16	0xc0078d80	-2.1180115
17	0x3fd7b4c2	1.6852038
18	0x3fcacc6c	1.5843635
19	0x3e9d1ca5	0.30685917
20	0xc00ddd2a	-2.2166238
21	0x3fa717ce	1.305414
22	0xbfa3715a	-1.2768967
23	0xbf24db51	-0.6439715
24	0x3f84f3ec	1.0386939
25	0x3f7868d5	0.9703496
26	0xbe94b077	-0.29040882
27	0xbe6c61ac	-0.23084134
28	0xbedf3ce7	-0.43601152
29	0x3f94bd6a	1.1620305
30	0xbfaa1926	-1.3288925
31	0xbf384c21	-0.71991163
32	0xbf726654	-0.9468739
33	0xbf8a4448	-1.0802088
34	0xbfb34cad	-1.4007775
35	0xbe6e472b	-0.23269336
36	0xc0021364	-2.0324335
37	0xbe54c775	-0.20779212
38	0x3f40ce42	0.75314724
39	0x400aefd0	2.170887

enc.agg_0.out_linear_layer.weight f4 [20, 20]
0	0x3e2ea822	0.17056325
1	0xbde9759d	-0.11399386
2	0xbdb3f9dc	-0.08787891
3	0x3c982456	0.018572014
4	0x3e337fde	0.17529246
5	0x3decac69	0.11556322
6	0xbe280ead	-0.16411848
7	0xbcd86d29	-0.02641924
8	0xbc709852	-0.0146847535
9	0x3dc8a873	0.09797754
10	0xbe231070	-0.15924239
11	0xbdb88e80	-0.09011555
12	0xbcc5889d	-0.024112994
13	0xbe547c29	-0.20750488
14	0xbd8a7804	-0.067611724
15	0xbe59c7d7	-0.21267639
16	0xbc4c087e	-0.012453197
17	0xbd2aa744	-0.041663423
18	0xbdf9864a	-0.12183817
19	0x3c934931	0.017979236
20	0xbe27ee64	-0.16399533
21	0xbe0f47ef	-0.13992284
22	0xbe4c8ec2	-0.19976333
23	0xbde05db0	-0.109553695
24	0xbd999dfe	-0.07500838
25	0x3e1e9b98	0.15489042
26	0x3ddc7073	0.107636355
27	0x3e1484fc	0.14503855
28	0x3c90f00f	0.017692594
29	0xbe15d68b	-0.14632623
30	0x3e49909a	0.19684067
31	0x3e3fb88f	0.18722747
32	0xbc726cdc	-0.014796462
33	0xbd3a1e7c	-0.04543923
34	0x3e129c8a	0.14317527
35	0xbd86ae26	-0.06576185
36	0xbe35faee	-0.17771503
37	0x3d8c4722	0.06849505
38	0xbe440aff	-0.1914482
39	0x3d04a1bc	0.032380804
40	0x3e1bc8f9	0.15213384
41	0xbe05f4db	-0.13081686
42	0x3e0b6a88	0.13614857
43	0xbdb96eed	-0.090543605
44	0x3e044dd9	0.12920322
45	0x3b7dc5f5	0.0038722728
46	0xbd61649c	-0.05502759
47	0xbd867e55	-0.06567065
48	0xbe178353	-0.1479619
49	0xbd2d1e23	-0.04226507
50	0x3d5e82e2	0.05432404
51	0x3d3e982c	0.04653184
52	0xbddefb25	-0.10887746
53	0x3d90c50a	0.07068832
54	0x3d6aa9f8	0.057291
55	0xbd2eb687	-0.04265454
56	0xbda8d789	-0.08244235
57	0x3cdd3eee	0.027007546
58	0xbdcc9251	-0.09988845
59	0xbe0a6ec4	-0.13518816
60	0x3d59c7f5	0.05316921
61	0xbcec02e0	-0.028809965
62	0x3e024a71	0.1272371
63	0xbd0d5bdb	-0.03451143
64	0xbc9cd783	-0.019145733
65	0x3e0b6060	0.13610983
66	0xbe2755c0	-0.16341305
67	0xbdd95e2e	-0.106136665
68	0xbe36c244	-0.17847544
69	0xbdb1113e	-0.08645867
70	0x3bdab684	0.0066745896
71	0x3e245bcf	0.16050647
72	0x3d6a2298	0.057161897
73	0xbe3e1f9a	-0.18566743
74	0xbe06b35f	-0.13154362
75	0x3d79ce5f	0.060987826
76	0x3d6381b6	0.055543624
77	0x3e17d467	0.14827119
78	0x3d0d64ce	0.034519963
79	0xbd533c11	-0.051570956
80	0x3e03e8af	0.1288173
81	0xbd8994f9	-0.067178674
82	0x3da4f98b	0.08055409
83	0xbe3d806f	-0.18506025
84	0x3e3ef957	0.18649803
85	0xbe5d9a8a	-0.21640983
86	0xbd97fe83	-0.07421591
87	0x3e49eee4	0.19720036
88	0x3dcb9f9c	0.099425524
89	0xbe382686	-0.17983446
90	0xbde37b47	-0.11107498
91	0x3e20b177	0.15692697
92	0xbe3816e9	-0.1797749
93	0x3d322d62	0.04350031
94	0xbd923680	-0.07139301
95	0xbe443804	-0.19161993
96	0xbdac0dfa	-0.08401103
97	0x3e379a1f	0.17929886
98	0xbd9db81b	-0.07701131
99	0xbe210d06	-0.15727624
100	0xbe246cf9	-0.16057195
101	0x3dcdbd85	0.100459136
102	0xbe16d998	-0.14731443
103	0xbe37f3cf	-0.179641
104	0x3d63f342	0.05565191
105	0x3d8994dd	0.067178465
106	0x3e274ea9	0.163386
107	0x3bb18d72	0.005418473
108	0xbb57977c	-0.0032896688
109	0x3e3eca45	0.18631847
110	0x3d4e6828	0.0503923
111	0xbde27ab7	-0.11058562
112	0x3df528c0	0.11970663
113	0xbe40fd3a	-0.18846598
114	0xbd8ece45	-0.069729365
115	0xbe13e120	-0.14441347
116	0x3db784a3	0.08960845
117	0x3d37202f	0.044708427
118	0xbd5b5cd8	-0.05355534
119	0xbc31e620	-0.010858089
120	0xbe558d8f	-0.20854782
121	0xbc60e815	-0.013727208
122	0xbda2e800	-0.07954407
123	0xbd84b767	-0.06480294
124	0xbda8394e	-0.08214055
125	0xbe380bde	-0.17973277
126	0xbe0bd1ca	-0.13654247
127	0x3cf1a490	0.029497415
128	0x3e16fde2	0.14745286
129	0xbdafc560	-0.08582568
130	0xbe48d5ca	-0.19612804
131	0xbe179086	-0.14801225
132	0x3d286ccb	0.041119378
133	0x3e3e6e91	0.18596865
134	0xbe0e26c4	-0.13881975
135	0x3e4357c1	0.19076444
136	0x3c81262d	0.015765274
137	0x3e45254e	0.19252512
138	0xbe08a75a	-0.1334509
139	0x3e1a651e	0.15077636
140	0x3ce77b52	0.028257046
141	0x3d567123	0.05235399
142	0x3e3c5615	0.18392213
143	0xbdfa4916	-0.12220971
144	0xbe422eae	-0.1896312
145	0x3d7bc350	0.06146556
146	0xbcdbd0bd	-0.026832933
147	0xbe4d28eb	-0.2003514
148	0xbe206e20	-0.1566701
149	0x3e07d3e3	0.13264422
150	0xbe005183	-0.12531094
151	0x3e5118d4	0.20419627
152	0xbd7774ec	-0.06041424
153	0x3e3c1a79	0.18369474
154	0xbe531c4b	-0.20616262
155	0x3e2b4dbf	0.16728877
156	0x3d47d7d4	0.048789814
157	0xbe280d74	-0.16411382
158	0xbd9e036d	-0.07715497
159	0x3d9e2569	0.07721979
160	0x3d86ba3e	0.06578492
161	0x3e3dd439	0.18537988
162	0x3cbe6359	0.023240732
163	0xbe10dbb3	-0.14146309
164	0xbe2f4fc1	-0.17120267
165	0x3cc22f7b	0.023704281
166	0x3bd92fef	0.0066280286
167	0x3d3ed2eb	0.046587866
168	0xbe0cf068	-0.13763583
169	0xbe0bb1e3	-0.13642077
170	0x3da5012a	0.08056863
171	0x3bbb748a	0.0057206796
172	0xbe1bb72e	-0.15206596
173	0xbe59fa5e	-0.21286914
174	0x3ca7e6c4	0.02049578
175	0xbd8e722c	-0.0695537
176	0x3e47113a	0.19440165
177	0xbdb30393	-0.08740916
178	0x3d9fbae7	0.07799321
179	0xbda3e2d4	-0.080022484
180	0xbe30ea38	-0.17276847
181	0x3b0bdd06	0.0021341457
182	0x3dcd1fec	0.10015854
183	0x3daac8f2	0.083391085
184	0x3dee1fee	0.11627184
185	0x3c862754	0.016376175
186	0xbe2544d4	-0.16139537
187	0xbe190bba	-0.1494588
188	0xbdbd0be1	-0.09230781
189	0xbdc4b0c6	-0.09604029
190	0xbe4258c4	-0.18979174
191	0xbd9e18dd	-0.07719586
192	0xbdc50318	-0.09619731
193	0x3e19eea3	0.15032439
194	0x3e5dd6be	0.21663949
195	0x3e04d10f	0.12970375
196	0x3d9cd80d	0.07658396
197	0xbdbba254	-0.09161821
198	0x3e59ce29	0.2127005
199	0xbc77e302	-0.0151298065
200	0xbdca9a3b	-0.098926984
201	0xbcd5e883	-0.026111847
202	0xbda6ed11	-0.081506856
203	0xbd8f27de	-0.06990026
204	0x3de909db	0.11378833
205	0xbe4e2ee1	-0.2013507
206	0x3e0e7f3c	0.13915724
207	0x3dcbf5a2	0.0995896
208	0xbe1211ce	-0.14264604
209	0x3db1fd99	0.08690948
210	0xbd56c428	-0.052433163
211	0xbdb9b64c	-0.090679735
212	0xbcea0fb1	-0.028571935
213	0x3d846c24	0.06465939
214	0xbd927beb	-0.07152542
215	0x3cddf824	0.027095862
216	0x3d23b19e	0.03996431
217	0xbe108eae	-0.14116928
218	0x3e257e34	0.16161424
219	0x3c28f962	0.010313364
220	0x3e11554a	0.14192691
221	0x3ba58624	0.005051391
222	0x3e46ff02	0.19433215
223	0xbc50a202	-0.012733938
224	0xbdbc59f0	-0.09196842
225	0xbde0be76	-0.109738275
226	0xbe0a361b	-0.13497202
227	0xbbb930b8	-0.0056515597
228	0xb7c1079e	-2.301094e-05
229	0x3e2c0245	0.16797741
230	0xbc90a175	-0.017655114
231	0xbd5cd6b3	-0.05391569
232	0x3e28afbf	0.16473292
233	0xbdcdc016	-0.10046403
234	0x3dd992e0	0.10623717
235	0x3e00b941	0.12570669
236	0xbe52fc61	-0.20604087
237	0xbe44fcdf	-0.19237088
238	0x3e287c0c	0.1645357
239	0xbbbb0b89	-0.005708162
240	0x3d99eeaf	0.075162284
241	0xbd93e17f	-0.07220744
242	0x3e5033d4	0.20332271
243	0x3c450a87	0.012026436
244	0xbd7cad31	-0.061688606
245	0xbdc08e44	-0.09402135
246	0x3e4dba95	0.20090707
247	0x3e11521d	0.1419148
248	0x3da3d366	0.079993054
249	0xbe41ea33	-0.18936996
250	0x3d6b6639	0.057470534
251	0x3e3220e6	0.17395362
252	0x3dc0683f	0.09394883
253	0x3d7a0188	0.061036617
254	0x3e23d766	0.16000137
255	0x3dc1029e	0.09424327

enc.agg_0.out_linear_layer.bias f4 [20]
0	0x3de4b532	0.11167373
1	0x3dfb794c	0.12278995
2	0xbe42d1a5	-0.19025286
3	0xbded817f	-0.11596965
4	0x3e62a9c6	0.22135076
5	0x3d6558e7	0.055992987
6	0xbd868025	-0.065674104
7	0xbd736c90	-0.059429705
8	0x3e4e4eaa	0.20147195
9	0xbe09ded7	-0.13463913
10	0xbdd140bc	-0.10217425
11	0x3e602b97	0.21891628
12	0xbd0fe624	-0.03513159
13	0xbdf2f001	-0.11862183
14	0x3e43d065	0.19122465
15	0xbd436f03	-0.04771329
16	0xbe076333	-0.13221435
17	0xbe1d6b17	-0.15372883
18	0xbd79fbef	-0.06103128
19	0xbd24f39f	-0.040271398

enc.agg_1.a f4 [40, 1]
0	0xbf3fb6cf	-0.7488832
1	0xbe1e1f3f	-0.15441607
2	0x400ce97f	2.2017515
3	0xc0165653	-2.3490188
4	0xbe3836ef	-0.17989706
5	0x401454ee	2.3176837
6	0xc048b635	-3.136121
7	0x40275ed7	2.6151636
8	0xbd9122e0	-0.0708673
9	0x3f845e7c	1.0341334
10	0xbe756900	-0.23965836
11	0x3f301838	0.68786955
12	0xbf4828b2	-0.78187096
13	0x3ed65a4c	0.41865766
14	0xbff4a2c5	-1.9112173
15	0x3f9e4e5a	1.2367661
16	0x3cf56b4f	0.029958395
17	0xbf858529	-1.0431262
18	0x3ef41d50	0.47678614
19	0xbff42472	-1.9073622
20	0x3f39c647	0.7256817
21	0xbd8a83e3	-0.06763437
22	0x3feca1a7	1.8486832
23	0x3f29f653	0.66391486
24	0x3e8be955	0.27326456
25	0x3fd381e1	1.6524011
26	0xbf9bc949	-1.2170802
27	0xc0436299	-3.052893
28	0xbf4e7b0c	-0.80656505
29	0x40240222	2.5626302
30	0xbe2990b8	-0.16559112
31	0xbfbdfbda	-1.4842484
32	0xbfa692a9	-1.3013507
33	0x3f74ecaa	0.9567362
34	0x3f8f6142	1.1201556
35	0x3f93f492	1.1559012
36	0x3ec4cb43	0.38436326
37	0x3f76fd68	0.9648042
38	0x3f8cd78c	1.100328
39	0x3f221b6d	0.633231

enc.agg_1.out_linear_layer.weight f4 [20, 20]
0	0xbd8e6372	-0.069525614
1	0x3db713eb	0.08939346
2	0xbda7670a	-0.0817395
3	0x3ca878a8	0.020565346
4	0x3e2fabd1	0.17155387
5	0x3da7312e	0.08163677
6	0x3e3c2849	0.18374743
7	0xbe0aed40	-0.13567066
8	0xbe13f7b2	-0.14449957
9	0xbd62deb9	-0.055388186
10	0x3d67b42d	0.056568313
11	0xbe4195b1	-0.18904759
12	0xbddf74d4	-0.10910955
13	0x3e2f9d95	0.17149957
14	0xbc85a3e0	-0.016313493
15	0xbe567c2c	-0.20945805
16	0x3e4d0fa7	0.20025502
17	0x3e0d9a4e	0.13828394
18	0xbe36efad	-0.17864867
19	0xbd63d419	-0.055622194
20	0x3dc88a2a	0.09791978
21	0x3b140acd	0.0022589446
22	0xbc06ebe3	-0.008234951
23	0xbc8e22fc	-0.017350666
24	0x3e0d09db	0.13773291
25	0xbdfd9b84	-0.12383178
26	0xbe39afac	-0.1813342
27	0x3e04f5e5	0.12984426
28	0xbc53655e	-0.012902586
29	0x3ddd3c90	0.10802567
30	0xbd668a8b	-0.05628447
31	0x3d8ec474	0.06971064
32	0xbd441d17	-0.047879305
33	0xbd517842	-0.051140077
34	0x3e3a5164	0.1819511
35	0xbe05d1af	-0.13068269
36	0x3e18e92f	0.14932702
37	0xbc286c0d	-0.010279668
38	0x3dbb08ea	0.091325596
39	0xbab32621	-0.001366798
40	0x3e19cb3d	0.15018936
41	0xbdf1cc7d	-0.11806581
42	0x3e25dc33	0.1619728
43	0x3e0d96b6	0.13827023
44	0x3dbc3097	0.09188955
45	0x3e27c80f	0.1638491
46	0xbd57b961	-0.052667025
47	0x3e00eb11	0.1258967
48	0xbc99df82	-0.018783335
49	0xbdeaff40	-0.11474466
50	0xbe19e1d8	-0.15027559
51	0xbdb63456	-0.08896701
52	0xbce387dc	-0.027774744
53	0xbdcda464	-0.10041121
54	0x3e0c4107	0.13696681
55	0xbe1fdefe	-0.15612409
56	0x3d001577	0.03127047
57	0xbd81b2cb	-0.0633293
58	0x3e0cfe3f	0.13768862
59	0xbd57e222	-0.05270589
60	0xbc5e87f2	-0.013582217
61	0xbe322868	-0.17398226
62	0xbdec228a	-0.11530025
63	0x3ccae56a	0.024767596
64	0x3e4bf4a2	0.19917539
65	0x3de1bff9	0.11022944
66	0xbd64f529	-0.055897865
67	0x3d04dbb3	0.032436084
68	0x3e39bf00	0.18139267
69	0xbdfa599a	-0.122241214
70	0x3d209d1c	0.03921233
71	0x3e12eac4	0.14347368
72	0xbd8b37d0	-0.06797755
73	0x3cadb5ce	0.021204855
74	0x3e4e88a9	0.20169319
75	0xbd961861	-0.07328869
76	0x3e564f17	0.20928608
77	0x3e097d2e	0.13426659
78	0xbe431423	-0.1905065
79	0x3c15eb5e	0.009150354
80	0xbe380c0f	-0.1797335
81	0xbd506661	-0.050878886
82	0x3e22e057	0.15905891
83	0x3e3609c2	0.1777716
84	0xbce8f2a8	-0.02843602
85	0xbe003547	-0.12520324
86	0x3d72b358	0.059253067
87	0xbd290a99	-0.041269872
88	0xbe05aea2	-0.13054898
89	0x3e0cbb3e	0.13743302
90	0x3e0adeb1	0.13561513
91	0xbc287a14	-0.010283012
92	0x3e263403	0.16230778
93	0xbd209176	-0.039201222
94	0xbe4f838e	-0.20265028
95	0xbe5ddabb	-0.2166547
96	0x3e267e91	0.16259219
97	0x3e4b7b3a	0.19871226
98	0x3e2c3f3b	0.16820996
99	0x3ce995f9	0.028513895
100	0x3df79823	0.12089565
101	0x3e3d0aaa	0.184611
102	0xbd3899c9	-0.045068536
103	0xbd769bcf	-0.060207184
104	0xbe4af16f	-0.19818662
105	0x3e3f6220	0.18689775
106	0x3ca3c286	0.019990217
107	0x3db242f0	0.087041736
108	0x3e5cac6a	0.21550146
109	0x3e39359b	0.18086855
110	0xbd3dd927	-0.04634967
111	0x3d06ad75	0.032880265
112	0x3dfed555	0.124430336
113	0xbdca8f60	-0.09890628
114	0x3e303d51	0.1721089
115	0xbe2624a9	-0.16224922
116	0x3e3a46e1	0.181911
117	0x3df34995	0.11879269
118	0x3d8904de	0.066903815
119	0xbe07f06c	-0.13275307
120	0x3d8f4062	0.06994702
121	0x3da71820	0.08158898
122	0xbd9493fd	-0.07254789
123	0x3d9af481	0.07566167
124	0xbe4e7561	-0.20161964
125	0xbe6519d8	-0.2237314
126	0xbd61cc42	-0.055126436
127	0x3d01ea45	0.031717557
128	0xbd8d06c0	-0.06886053
129	0x3e0bd93e	0.1365709
130	0x3e10671d	0.14101835
131	0xbde4cf85	-0.11172394
132	0xbd8f3760	-0.06992984
133	0x3d4b15b5	0.04958125
134	0xbdb977b5	-0.090560354
135	0x3d8fe35a	0.07025786
136	0x3e2e2181	0.17004968
137	0xbe50196b	-0.20322196
138	0x3e3fe287	0.18738757
139	0xbe251ad5	-0.16123517
140	0xbd130abb	-0.035898905
141	0x3d442e3c	0.047895655
142	0xbe4bf223	-0.19916587
143	0xbd895d84	-0.0670729
144	0xbe457f64	-0.19286877
145	0x3d787fd4	0.06066878
146	0x3d714887	0.058907058
147	0xbdbc61ff	-0.09198379
148	0xbdde6c81	-0.10860539
149	0xbcab79df	-0.020932136
150	0x3e08724f	0.13324855
151	0x3e32e476	0.17469963
152	0x3d95f7b9	0.0732264
153	0xbe5ba6c1	-0.2145033
154	0x3e13f67d	0.14449497
155	0x3e2829ea	0.16422239
156	0x3dec1ac8	0.115285456
157	0x3e26018f	0.16211532
158	0x3e53c86c	0.20681924
159	0x3df50b69	0.11965067
160	0xbe49e9a8	-0.19718039
161	0x3e0ae456	0.13563666
162	0x3e2ca0e5	0.16858251
163	0xbdf8ddc3	-0.12151673
164	0xbdf2101d	-0.118194796
165	0xbe22b623	-0.15889792
166	0xbdc84557	-0.097788505
167	0x3d538d79	0.05164859
168	0xbdae47cc	-0.08509788
169	0xbd1f8fd4	-0.038955525
170	0xbcfb9ead	-0.030715311
171	0x3cc6b32f	0.024255363
172	0x3dfa0db1	0.12209643
173	0x3e21a6e1	0.15786316
174	0xbd03d4cc	-0.03218536
175	0xbd8070e9	-0.06271536
176	0x3e144cb8	0.14482391
177	0xbd7dc7ba	-0.061958052
178	0x3dd0d1cc	0.101962656
179	0xbd1338b8	-0.035942763
180	0x3e5b0377	0.2138804
181	0x3e280606	0.16408548
182	0xbe47ff17	-0.19530903
183	0x3dda67cb	0.10664328
184	0xbe54f1c4	-0.20795351
185	0xbcbcbbe9	-0.023038821
186	0xbe0c8634	-0.1372307
187	0xbe64fddf	-0.22362469
188	0xbe3e4b89	-0.18583502
189	0x3d9f2724	0.07771137
190	0x3d8e641d	0.06952689
191	0xbe4be0f8	-0.19910038
192	0x3d029b1b	0.0318862
193	0xbe042433	-0.12904434
194	0xbe0a8849	-0.13528551
195	0xbe42249a	-0.18959275
196	0x3e1f3115	0.15546067
197	0xbe091528	-0.13386977
198	0xbdb6875c	-0.089125365
199	0x3d31d0a7	0.043411877
200	0xbdde136b	-0.108435474
201	0xbcdd6c2a	-0.027029116
202	0x3e091779	0.1338786
203	0xbd6d56e0	-0.05794418
204	0x3e01f06a	0.12689367
205	0x3e50f0fc	0.20404428
206	0xbe101365	-0.14069898
207	0x3e45a29d	0.19300313
208	0xbd9f8193	-0.07788386
209	0x3dbb3580	0.09141064
210	0x3dfbd9fe	0.12297438
211	0xbd3b6db2	-0.04575891
212	0xbc9b78ca	-0.018978495
213	0x3dfbab49	0.122885294
214	0x3e27669d	0.16347738
215	0xbd4c1712	-0.04982669
216	0x3d895a5f	0.0670669
217	0x3e2ed440	0.17073154
218	0xbcb868e1	-0.022510948
219	0xbdf7414e	-0.12073003
220	0x3d9302e9	0.071782894
221	0xbcfe0042	-0.031005982
222	0x3e281d13	0.16417341
223	0xbe050553	-0.12990312
224	0x3ccf5aab	0.025311789
225	0xbd96ce55	-0.073635735
226	0x3d2cd42e	0.042194538
227	0x3e5f8b69	0.21830525
228	0x3d9888ec	0.07447991
229	0x3c93d629	0.018046455
230	0xbd222842	-0.039589174
231	0x3e1fa0d5	0.15588696
232	0x3dff6ae8	0.124715626
233	0x3e20726e	0.15668651
234	0x3df03f52	0.117308274
235	0x3e23c5c9	0.15993418
236	0x3e5dae68	0.21648562
237	0x3dd4ea08	0.103962004
238	0x3d80c17e	0.06286906
239	0x38e6d1ce	0.00011006334
240	0x3cd6539f	0.02616292
241	0xbd174e2f	-0.036939796
242	0x3e1cbe2d	0.15306921
243	0x3d37637c	0.04477261
244	0x3e0267c0	0.1273489
245	0xbe415875	-0.188814
246	0xbdc1d738	-0.09464878
247	0x3dc13b88	0.09435183
248	0x3d5dbb96	0.054133974
249	0x3dbb0800	0.09132385
250	0x3e47b60a	0.19503036
251	0xbda389cd	-0.07985268
252	0x3e0b65c8	0.13613045
253	0xbda71316	-0.08157937
254	0xbd15551c	-0.03645812
255	0x3db27a8e	0.08714782

enc.agg_1.out_linear_layer.bias f4 [20]
0	0x3dcad3b3	0.0990366
1	0x3e16ba91	0.14719607
2	0x3d7ed1da	0.06221185
3	0x3e178e05	0.1480027
4	0x3d341c0b	0.043972056
5	0xbd15dada	-0.036585666
6	0x3d872d0e	0.066003904
7	0xbd849a4e	-0.06474744
8	0xbd6d84f1	-0.05798811
9	0xbd86d4c4	-0.065835506
10	0xbd9419f8	-0.07231516
11	0x3d9bc1d9	0.07605333
12	0x3e03df56	0.12878165
13	0x3d5a6263	0.053316485
14	0x3d7ab172	0.06120438
15	0xbc830693	-0.015994346
16	0xbe04d950	-0.12973523
17	0xbd9e2ee9	-0.07723791
18	0x3ccdc8a4	0.025120087
19	0x3e2e8160	0.1704154

enc.agg_2.a f4 [40, 1]
0	0x3e00bebb	0.12572758
1	0x3ee31853	0.44354495
2	0x3ff453d5	1.9088084
3	0x3f43530b	0.7629859
4	0x3fc11ea3	1.5087475
5	0x3f8c6675	1.0968767
6	0x3f2ec76e	0.68273056
7	0x3f853b14	1.0408654
8	0x3ff25cc3	1.8934559
9	0xbec90e6b	-0.39268813
10	0xbf32471e	-0.69639766
11	0x3f841486	1.0318763
12	0xbf01bd7d	-0.5067976
13	0x3e82b6f8	0.2553022
14	0x3e910e0d	0.28331032
15	0xbedff12f	-0.43738696
16	0x3f2844b1	0.65729815
17	0x3db50979	0.088396974
18	0xbfc85d91	-1.5653554
19	0xbf17b692	-0.59262955
20	0xbfc3bf77	-1.5292805
21	0x3ed6b093	0.4193159
22	0x3ef22a88	0.47298074
23	0xbd3bdc50	-0.045864403
24	0xbea55ef4	-0.32299006
25	0x3f04b244	0.5183451
26	0x3f33f553	0.7029621
27	0xbedac616	-0.42729253
28	0xbee2d149	-0.44300297
29	0x3ff62a70	1.9231701
30	0x3e5cb44b	0.21553151
31	0x3fcf8a3b	1.621406
32	0x3e50ab6b	0.20377891
33	0x3e0c928c	0.13727778
34	0xbea10a15	-0.31453004
35	0xbf1b5cc3	-0.6068842
36	0xbba96e90	-0.005170651
37	0x3f1008b4	0.5626328
38	0xbd38b4c4	-0.045094267
39	0xbf8d6437	-1.1046208

enc.agg_2.out_linear_layer.weight f4 [20, 20]
0	0xbe21f3e4	-0.15815693
1	0x3e186b5b	0.14884703
2	0xbd802f8d	-0.062590696
3	0x3ca33202	0.019921307
4	0x3d80a111	0.06280721
5	0x3e2ff96d	0.17184992
6	0xbac79495	-0.0015226776
7	0x3d9001dc	0.07031605
8	0x3e32bb52	0.1745427
9	0x3d37b399	0.044849012
10	0xbb257b7e	-0.002525061
11	0x3c19333d	0.009350595
12	0xbe2d5dc6	-0.16930303
13	0xbe56d6a7	-0.20980321
14	0xbdff4b88	-0.12465578
15	0xbdc0c81c	-0.09413168
16	0x3e5ab321	0.21357395
17	0xbd9c86d2	-0.076429024
18	0xbe150bd0	-0.14555287
19	0xbda73e92	-0.08166231
20	0x3e3727c7	0.17886268
21	0xbe2ea3f1	-0.17054726
22	0x3e1e7387	0.15473758
23	0xbdbf6165	-0.093447484
24	0xbdcc62e0	-0.099797964
25	0x3d99ff15	0.07519356
26	0xbd52707d	-0.05137681
27	0x3de228db	0.11042949
28	0x3df17330	0.117895484
29	0xbda5553d	-0.080728985
30	0xbdbd45b1	-0.09241808
31	0xbd3bf870	-0.045891225
32	0xbd7709f7	-0.060312238
33	0xbe4dbd3d	-0.2009172
34	0x3ce737d2	0.02822486
35	0xbe356728	-0.17715132
36	0x3cc3f5a8	0.023920849
37	0x3e35aaaf	0.17740892
38	0x3de17f98	0.11010665
39	0x3d0f40b6	0.034973823
40	0x3e20045a	0.1562666
41	0x3df011b2	0.11722125
42	0x3e30b248	0.17255509
43	0xbe131d3e	-0.14366624
44	0x3dce4ad7	0.10072868
45	0xbde75c34	-0.11296883
46	0xbdf40026	-0.11914091
47	0xbe21ef23	-0.1581388
48	0x3c66c537	0.014085106
49	0x3e35d48c	0.17756861
50	0x3bdf16f2	0.006808155
51	0xbd5c2bc3	-0.053752672
52	0xbc07959e	-0.008275418
53	0x3e115ec8	0.14196312
54	0x3d567348	0.052356035
55	0x3d418091	0.04724175
56	0x3dd3d3e2	0.10343148
57	0x3e261885	0.16220291
58	0xbda3f0ce	-0.08004914
59	0xbe12f771	-0.14352204
60	0x3d89b77a	0.067244485
61	0x3d6c0aef	0.057627615
62	0x3c012125	0.007881437
63	0x3dd56ee9	0.10421545
64	0xbb45b8b5	-0.0030169908
65	0x3d8009c0	0.0625186
66	0x3bb9132f	0.005648039
67	0xbdb3a26b	-0.08771213
68	0xbcb5b8ba	-0.022182811
69	0xbc19ece2	-0.009394856
70	0xbcd2c898	-0.025730416
71	0xbdb253a7	-0.08707362
72	0x3e17f2b4	0.14838678
73	0x3e03319c	0.12811893
74	0xbe01d6b6	-0.12679562
75	0x3e5290b1	0.20563008
76	0xbd5cb677	-0.05388495
77	0xbe0c645b	-0.13710158
78	0xbe460395	-0.19337304
79	0x3e1d3e8c	0.15355891
80	0x3dff8283	0.12476065
81	0xbd3cd69c	-0.046103105
82	0x3d61a782	0.05509139
83	0x3da40647	0.0800901
84	0xbe081c5d	-0.1329207
85	0x3e21b2f8	0.15790927
86	0xbe3396c9	-0.17537989
87	0xbe078cb1	-0.13237263
88	0x3cc1ab72	0.023641322
89	0x3dd2f8a9	0.103013344
90	0x3d4cb428	0.049976498
91	0xbcfc8e69	-0.030829625
92	0x3ddf407a	0.1090097
93	0xbcc47852	-0.023983154
94	0x3db1f931	0.086901076
95	0x3e24e928	0.16104567
96	0xbe5abc03	-0.21360783
97	0xbd3bf491	-0.045887534
98	0xbe392024	-0.18078667
99	0x3d56862c	0.05237405
100	0xbe2d98de	-0.16952845
101	0x3db05589	0.086100645
102	0xbd8be04e	-0.06829892
103	0x3d60ac6e	0.05485194
104	0x3d046323	0.032321107
105	0x3e2f71dd	0.17133279
106	0x3d43cd7d	0.04780339
107	0x3e19ec22	0.15031484
108	0xbdf5a654	-0.11994615
109	0xbda10400	-0.07862091
110	0xbce440c5	-0.027862916
111	0x3d49e41e	0.049289815
112	0xbe1716b7	-0.14754759
113	0x3e259714	0.16170913
114	0xbe19686c	-0.1498124
115	0xbe4145a4	-0.18874222
116	0x3dee395b	0.116320334
117	0xbe260646	-0.1621333
118	0xbc9d2cf1	-0.019186469
119	0xbe065442	-0.1311808
120	0xbd4d0a1c	-0.05005847
121	0xbd3b2ead	-0.04569881
122	0xbe2e0614	-0.16994506
123	0x3e020175	0.12695868
124	0x3e429c2d	0.19004889
125	0xbda2a836	-0.0794224
126	0x3d67f6c2	0.05663181
127	0xbe3a9a6b	-0.18222968
128	0xbdd31c49	-0.10308129
129	0xbdb6d3f0	-0.089271426
130	0x3e27f635	0.16402514
131	0x3e05536a	0.13020101
132	0x3e17baa8	0.14817297
133	0x3e4c738d	0.19965954
134	0x3d842881	0.06453038
135	0x3d947c22	0.07250239
136	0xbe209148	-0.1568042
137	0x3e1d206c	0.15344399
138	0x3da2343c	0.07920119
139	0x3d91d854	0.071213394
140	0xbdd3a2ec	-0.10333809
141	0x3e04629c	0.12928241
142	0xbe152751	-0.1456578
143	0xbdaa26c2	-0.08308174
144	0x3e4f97b7	0.20272718
145	0xbdf07702	-0.11741449
146	0x3da763ab	0.08173307
147	0x3e40ae25	0.18816431
148	0x3e1fdbeb	0.15611236
149	0xbce06ad2	-0.027394686
150	0xbb42dc72	-0.0029733446
151	0xbe4d8c13	-0.20072965
152	0xbe1ea4ed	-0.15492602
153	0xbd4f3cbe	-0.050595038
154	0xbe0cb99a	-0.13742676
155	0xbe1d2732	-0.15346983
156	0xbc3b67cd	-0.011438322
157	0xbdde38b8	-0.10850662
158	0x3b1dc00e	0.0024070772
159	0xbe237f80	-0.15966606
160	0x3d4ed927	0.05050006
161	0xbda4422e	-0.08020435
162	0xbe09eea2	-0.13469937
163	0x3cd21392	0.025644097
164	0xbd23d861	-0.040001277
165	0xbe33bb87	-0.17552005
166	0x3dfd0d4c	0.12356052
167	0x3d42ab97	0.047526922
168	0x3de49b28	0.11162406
169	0x3e46447a	0.19362059
170	0x3dbd766b	0.09251102
171	0xbd625d97	-0.055265035
172	0x3c6283aa	0.0138253365
173	0xbd02eb49	-0.031962667
174	0xbc1807ee	-0.009279234
175	0x3dc1110d	0.0942708
176	0xbdf3d563	-0.11905935
177	0x3dadc22a	0.084842995
178	0x3e0106b1	0.12600209
179	0x3dddbc2c	0.108269066
180	0xbdf4a17c	-0.11944863
181	0xbda5bb91	-0.08092416
182	0x3e3d7ac7	0.18503867
183	0x3dad1c12	0.084526196
184	0xbd2ba666	-0.041906737
185	0xbdf20324	-0.11817005
186	0x3e46b876	0.19406304
187	0x3dfb00ac	0.122559875
188	0xbdbd11b6	-0.09231894
189	0x3dbf7fdb	0.09350558
190	0xbd5140e2	-0.051087268
191	0xbd1676d8	-0.036734432
192	0xbdc0c9d5	-0.094134964
193	0xbe17aee1	-0.14812805
194	0x3ded1b47	0.11577468
195	0xbdb2e90d	-0.08735857
196	0xbd95a0e2	-0.073060766
197	0x3d97abe5	0.07405833
198	0x3daae48a	0.083443716
199	0xbe291a52	-0.16513947
200	0x3e04c67e	0.12966344
201	0x3e463208	0.19355023
202	0x3e3e8151	0.18604018
203	0x3e1a40c1	0.15063764
204	0x3e0597a5	0.13046129
205	0x3c4e0b06	0.01257587
206	0x3dd62191	0.10455621
207	0x3dd3539f	0.10318684
208	0x3df9c3b4	0.121955305
209	0xbda8a789	-0.0823508
210	0x3e14a26a	0.14515081
211	0xbd19ed3e	-0.037579767
212	0xbd427a40	-0.047479868
213	0xbda46cd0	-0.08028567
214	0xbdbf6680	-0.09345722
215	0xbe39f768	-0.18160784
216	0x3dc04986	0.093890235
217	0xbdbb771e	-0.09153579
218	0xbe0ee1b8	-0.13953292
219	0x3c51e045	0.012809818
220	0xbb902f31	-0.004400157
221	0x3e01712c	0.12640828
222	0xbd927039	-0.07150311
223	0xbd5da616	-0.05411347
224	0xbcb3f83e	-0.021968957
225	0xbd0437a1	-0.032279614
226	0xbdb2e373	-0.08734789
227	0x3e127362	0.14301828
228	0x3db0cd03	0.08632853
229	0xbd5772f5	-0.052599866
230	0xbdea3b79	-0.11437125
231	0x3c02151e	0.007939605
232	0x3da99ab2	0.08281459
233	0xbe2f85c0	-0.17140865
234	0x3d40071e	0.046881787
235	0x3e2b73f0	0.16743445
236	0x3de7cbc2	0.113181606
237	0x3d98459f	0.07435154
238	0x3e241df2	0.16027048
239	0xbaea0041	-0.0017852859
240	0x3d640a49	0.05567387
241	0xbd870c2f	-0.06594121
242	0x3e395618	0.18099248
243	0x3d8ac2b1	0.06775416
244	0xbe1951b7	-0.14972578
245	0xbd4b15a8	-0.0495812
246	0x3dfdc0ad	0.123902656
247	0x3ddfb055	0.109223045
248	0xbe34c132	-0.17651823
249	0x3ba71bd4	0.005099753
250	0xbcecd7d6	-0.028911512
251	0x3d1b698e	0.03794246
252	0x3ddd63ee	0.10810076
253	0x3c9b6516	0.0189691
254	0xbc3ee57d	-0.011651394
255	0xbe417b83	-0.18894772

enc.agg_2.out_linear_layer.bias f4 [20]
0	0x3dd719e0	0.10502982
1	0x3dba09e4	0.09083918
2	0xbcd71392	-0.026254449
3	0x3de91e63	0.11382749
4	0xbe3a0be3	-0.18168597
5	0xbe243e33	-0.16039352
6	0x3c20250c	0.009774458
7	0xbe17da15	-0.14829285
8	0x3e45e474	0.19325429
9	0x3e2375b0	0.15962863
10	0x3d605d82	0.054776676
11	0xbd82b4ca	-0.06382139
12	0x3d88135d	0.06644318
13	0x3da72f15	0.08163277
14	0xbdca3e07	-0.09875112
15	0xbda29552	-0.07938637
16	0xbe15056e	-0.14552853
17	0x3dbf8e88	0.093533576
18	0xbe1f9058	-0.15582407
19	0xbdf94a2c	-0.1217235

enc.agg_3.a f4 [40, 1]
0	0x3f7c1676	0.9847177
1	0xbf418082	-0.7558671
2	0xbdf68808	-0.12037665
3	0x3fb9b2c8	1.4507685
4	0xc00bac18	-2.1823788
5	0xbf743359	-0.9539085
6	0xbfc18139	-1.5117561
7	0x3f96ef71	1.1791822
8	0x3fd01030	1.625494
9	0x3ffe558a	1.9869854
10	0xbfda0d9a	-1.7035401
11	0x3fcba0ef	1.5908488
12	0xbf138309	-0.5762182
13	0xbe8ca065	-0.2746612
14	0x402d1cbf	2.7048795
15	0x3c1129b6	0.008860042
16	0xbf4a5573	-0.79036635
17	0xbd8fe8b0	-0.070268035
18	0x3fc7e2a4	1.561604
19	0xc00292b8	-2.040205
20	0xbf562ab5	-0.83658916
21	0xbfa0b293	-1.2554497
22	0x3f337577	0.7010111
23	0xbf519504	-0.81868005
24	0xbe50dd6f	-0.2039697
25	0x404db44e	3.21413
26	0xbf29aab1	-0.6627608
27	0xbf3bfade	-0.7342967
28	0xbd5f76b0	-0.05455655
29	0x3fd96f42	1.6987078
30	0x3fdbd1b1	1.7173368
31	0x404a842e	3.1643176
32	0xbf8a7afe	-1.0818784
33	0xc00874ad	-2.1321213
34	0x3feb8060	1.8398552
35	0x3f14a971	0.5807105
36	0x3eefb26e	0.4681582
37	0xbf6a5959	-0.91542584
38	0x3faef722	1.3669169
39	0xbf1a13f8	-0.6018672

enc.agg_3.out_linear_layer.weight f4 [20, 20]
0	0x3e2a80cc	0.16650695
1	0x3d9a0468	0.07520372
2	0xbe2a6fad	-0.16644163
3	0xbd0ca17e	-0.0343337
4	0x3dc6a96b	0.09700283
5	0x3d825325	0.06363515
6	0xbdb70418	-0.08936328
7	0xbe0b2912	-0.13589886
8	0x3e5d87a4	0.21633774
9	0xbd6066ca	-0.054785527
10	0x3c91ca5b	0.017796686
11	0x3da1672f	0.07881009
12	0xbd061b93	-0.03274114
13	0x3d5ab8c4	0.053398862
14	0xbd576218	-0.052583784
15	0x3e24c575	0.16090949
16	0xbc4dfebd	-0.012572941
17	0x3ddebc5b	0.1087577
18	0x3d5f8216	0.05456742
19	0xbc4fe534	-0.012688924
20	0x3cd3f358	0.025872871
21	0xbcc99ad7	-0.024609966
22	0x3d8a05d4	0.06739393
23	0xbd966aff	-0.07344627
24	0xbdb70c0d	-0.089378454
25	0x3d368efa	0.044569947
26	0xbce44a81	-0.027867557
27	0xbe3ff707	-0.18746577
28	0x3e075225	0.1321493
29	0xbddcb211	-0.10776151
30	0x3e37cab3	0.17948417
31	0xbdbb66b5	-0.09150449
32	0xbd80acde	-0.06282972
33	0x3d4eb6aa	0.05046717
34	0x3deeafd0	0.11654627
35	0x3e4479a4	0.19187027
36	0x3e42340c	0.18965167
37	0xbc172e47	-0.009227342
38	0xbdcb1a17	-0.099170856
39	0x3e2c27c4	0.16812044
40	0x3df514b2	0.11966838
41	0x3de535bf	0.11191892
42	0xbd669414	-0.056293562
43	0xbd82e16c	-0.06390652
44	0x3b821b0a	0.0039705085
45	0xbe4fb7a6	-0.202849
46	0x3e450b2d	0.19242544
47	0x3e448092	0.1918967
48	0x3deee245	0.11664251
49	0x3de25b51	0.110525735
50	0xbe2e6c49	-0.17033495
51	0x3db388f6	0.087663576
52	0x3d4cc75d	0.049994815
53	0xbe273e3d	-0.16332336
54	0x3d931f30	0.07183683
55	0xbe28a1bd	-0.16467948
56	0x3e0652f4	0.13117582
57	0x3dc2379f	0.09483265
58	0x3daf7229	0.08566696
59	0x3e0cdf5a	0.13757077
60	0x3d1caea4	0.038252488
61	0x3d9b850e	0.075937375
62	0xbe0d6e21	-0.13811542
63	0x3db3ccc5	0.08779291
64	0x3e0e6a19	0.1390766
65	0x3e65f101	0.22455217
66	0xbe0e1be4	-0.13877827
67	0xbe2aae0b	-0.16667955
68	0x3d85abd3	0.065269135
69	0x3df8ad00	0.12142372
70	0xbd2952b8	-0.041338652
71	0xbda27256	-0.07931964
72	0xbd399de8	-0.045316607
73	0xbe3ec261	-0.18628837
74	0xbe4d2f99	-0.20037688
75	0x3e4c52f9	0.19953527
76	0x3e424cc4	0.18974596
77	0xbdc88e90	-0.09792817
78	0xbe2c27b8	-0.16812027
79	0xbe118b94	-0.14213401
80	0xbccca050	-0.024978787
81	0xbe381ac2	-0.17978957
82	0xbe0ee005	-0.13952644
83	0x3d0a184e	0.033714585
84	0x3e4dcec2	0.20098403
85	0x3ddaedc6	0.10689883
86	0xbe3818ed	-0.17978258
87	0xbd305646	-0.043051027
88	0xbe3ca941	-0.1842394
89	0x3d4b5b17	0.049647417
90	0xbdf37a8d	-0.11888609
91	0xbd5e3ae7	-0.054255392
92	0x3c364a2c	0.011126082
93	0x3da7dd58	0.08196515
94	0xbd50ccef	-0.05097669
95	0x3da3bd5e	0.07995103
96	0x3e26e8ae	0.16299698
97	0xbd6369ea	-0.05552093
98	0xbdf925a6	-0.12165384
99	0x3c9f39b7	0.0194367
100	0xbdcca63d	-0.09992645
101	0xbb9e0bb7	-0.004823174
102	0x3d8282af	0.06372582
103	0xbd9a73e2	-0.07541634
104	0x3e1083c3	0.14112763
105	0xbe507620	-0.20357561
106	0x3e32a2db	0.17444937
107	0xbdd6ad1c	-0.10482237
108	0xbe467291	-0.19379641
109	0x3d6ca39a	0.05777321
110	0x3d7868f3	0.060646962
111	0xbe296f9f	-0.16546486
112	0xbe059e96	-0.13048777
113	0xbe41e47e	-0.18934819
114	0x3d4bf925	0.04979815
115	0x3cca80c3	0.024719601
116	0xbdc6345f	-0.09677958
117	0xbd64d525	-0.055867333
118	0x3e28b8f0	0.16476798
119	0xbd4df8d1	-0.050286118
120	0x3e252572	0.16127566
121	0xbcba16d3	-0.022715962
122	0xbe160e0e	-0.14653799
123	0x3dfeb1a0	0.12436223
124	0xbda23051	-0.07919372
125	0xbcda4657	-0.026644869
126	0xbcfdb24f	-0.030968813
127	0x3a5bd33d	0.0008385664
128	0x3e59f2e3	0.2128406
129	0x3df49e8e	0.119443044
130	0x3db78c3a	0.08962293
131	0xbe2bd1f3	-0.16779308
132	0x3dfff53e	0.12497948
133	0x3e4597c1	0.19296171
134	0x3e1113ec	0.14167756
135	0xbd1649b4	-0.036691383
136	0xbdb2e783	-0.087355636
137	0xbe0a11c1	-0.13483335
138	0x3e403b49	0.18772615
139	0x3e1660ba	0.14685336
140	0x3e5f19b1	0.21787144
141	0xbe1e0469	-0.1543137
142	0x3de68e11	0.11257566
143	0x3aa386c6	0.0012476079
144	0xbde5e4d3	-0.112252854
145	0x3e4b4ac4	0.1985274
146	0xbe46a243	-0.19397835
147	0xbcfb9057	-0.030708475
148	0x3e4e023c	0.2011804
149	0x3dfac013	0.122436665
150	0xbd81f1dc	-0.06344959
151	0x3cbdb798	0.023158833
152	0xbc3856db	-0.011251177
153	0xbe295003	-0.16534428
154	0xbb8485ab	-0.004044255
155	0xbe4c6611	-0.1996081
156	0x3df9c639	0.12196011
157	0xbde4917b	-0.11160561
158	0x3e081949	0.13290896
159	0x3e30174a	0.17196384
160	0x3e22f53b	0.1591386
161	0x3e2f518b	0.1712095
162	0x3cd35ca3	0.025801009
163	0xbe474384	-0.19459349
164	0x3d960f46	0.07327132
165	0xbd2c87f7	-0.042121854
166	0xbe021381	-0.12702753
167	0xbe3fde91	-0.18737246
168	0x3dae365d	0.08506463
169	0xbd95b58e	-0.073100194
170	0x3d3f2bb3	0.046672534
171	0xbd9edca7	-0.0775693
172	0xbb977712	-0.0046223486
173	0xbe2ca052	-0.16858032
174	0x3c14fe1e	0.009093789
175	0xbded76c8	-0.11594921
176	0xbe126b59	-0.14298762
177	0x3e112497	0.14174114
178	0x3e2819d9	0.1641611
179	0xbdee479b	-0.116347514
180	0xbd14bc0c	-0.036312148
181	0xbd3b9dbe	-0.04580473
182	0x3db68293	0.08911624
183	0xbb54dc4d	-0.0032479942
184	0xbda7fce1	-0.0820253
185	0xbe67dc6a	-0.22642675
186	0x3e56fc5a	0.20994702
187	0xbc150a4b	-0.009096692
188	0x3dac7fa4	0.08422783
189	0xbdd0625f	-0.10175013
190	0xbdf38096	-0.1188976
191	0xbe555d52	-0.2083638
192	0x3dca1ecb	0.098691545
193	0xbe476ade	-0.1947436
194	0x3dc77e3f	0.097408764
195	0xbd926312	-0.071478024
196	0x3e47ddb4	0.19518167
197	0x3e4e3703	0.20138173
198	0xbdce57b6	-0.10075323
199	0xbe472c44	-0.1945048
200	0xbd37cb52	-0.044871636
201	0xbc3142b1	-0.010819123
202	0x3e4f4437	0.20240866
203	0x3d979d5f	0.07403063
204	0x3db7cacb	0.089742266
205	0xbd50faa3	-0.051020276
206	0x3e3b4b1d	0.18290372
207	0x3dadec04	0.08492282
208	0xbe41c13c	-0.1892137
209	0x3da08448	0.07837731
210	0xbdc01eac	-0.0938085
211	0xbd78d883	-0.060753357
212	0x3db419df	0.08793997
213	0x3d66d930	0.05635947
214	0xbdf72d6b	-0.1206921
215	0xbdb36d41	-0.08761073
216	0xbb617e52	-0.0034407568
217	0x3d8298d9	0.063768096
218	0x3e188b3b	0.14896862
219	0xbdd1b38a	-0.102393225
220	0x3d2a100f	0.04151922
221	0xbd8dca95	-0.06923405
222	0xbe211c83	-0.15733533
223	0xbd6b2d6d	-0.05741637
224	0x3ccecee4	0.025245138
225	0x3d601968	0.05471173
226	0xbd6887dc	-0.05677019
227	0xbc6a453b	-0.014298732
228	0x3dc2b82b	0.095077835
229	0x3e414877	0.188753
230	0xbe191edb	-0.14953177
231	0xbe254e45	-0.16143139
232	0xbd9c2e29	-0.07625992
233	0xbca72914	-0.02040533
234	0xbe2164b0	-0.15761065
235	0xbdfdf439	-0.124000974
236	0x3e0725f7	0.13198076
237	0x3d8179a5	0.0632203
238	0x3e5cced4	0.21563274
239	0x3e29e0f1	0.16589715
240	0xbd874c2c	-0.066063255
241	0xbdb27bb1	-0.087149985
242	0xbc05fd51	-0.008178071
243	0xbe19eb90	-0.15031266
244	0x3e35d9d2	0.17758873
245	0xbdf29906	-0.11845593
246	0x3e497c99	0.19676436
247	0xbe50b48d	-0.20381375
248	0x3e591b5e	0.21201846
249	0xbc2ba8fd	-0.010477302
250	0x3e3e19d5	0.18564542
251	0x3d997cb4	0.07494488
252	0xbb9ed6dc	-0.0048473906
253	0xbd4bf2c6	-0.049792074
254	0x3dc6033b	0.09668585
255	0x3e49806a	0.19677892

enc.agg_3.out_linear_layer.bias f4 [20]
0	0xbe1952f8	-0.14973056
1	0x3e50d1a0	0.20392466
2	0x3e4a8b27	0.19779645
3	0xbdd4be8c	-0.103879064
4	0x3e5a7981	0.21335413
5	0x3dd75b57	0.105154686
6	0xbe5f1645	-0.21785839
7	0x3d0f7a5d	0.035028804
8	0x3e2a4047	0.16626082
9	0x3e601cdc	0.21886009
10	0x3d740386	0.059573673
11	0x3e0ff021	0.14056446
12	0xbe1cb1fa	-0.15302268
13	0xbe22ecf3	-0.15910701
14	0x3b2114d1	0.0024579058
15	0xbd80fb96	-0.06297986
16	0xbd22ccb4	-0.039746
17	0xbe2ad747	-0.16683684
18	0x3e33df23	0.17565589
19	0xbd0a9f77	-0.033843484

enc.agg_4.a f4 [40, 1]
0	0x3fc2ea99	1.5227844
1	0xbee73b5e	-0.4516248
2	0x3f9d1352	1.2271521
3	0x3f6eb79f	0.93248934
4	0x3eccf38a	0.40029556
5	0xbff94bbd	-1.9476238
6	0x40356201	2.8341067
7	0xbe9f9272	-0.31166416
8	0x3ea4810d	0.32129708
9	0xbf0404d7	-0.51569885
10	0x3fa92958	1.3215742
11	0xbf09e7fd	-0.5386961
12	0xbd5fcab6	-0.05463668
13	0x3f2d692d	0.6773861
14	0xbe57c8bf	-0.21072672
15	0xbf55c23b	-0.834995
16	0x3f8efa85	1.1170202
17	0xbfe1f432	-1.7652647
18	0xbf1dbb3b	-0.61613816
19	0xbf3bff72	-0.73436654
20	0xc08d5f6d	-4.4178987
21	0x3f167109	0.5876623
22	0xbc8f5172	-0.01749489
23	0x3c0d1b78	0.008612506
24	0x3f92d437	1.1471013
25	0xbf14f320	-0.5818348
26	0xbf270be7	-0.65252537
27	0x4040f462	3.014916
28	0x3f5e8f38	0.86937284
29	0xbe8ed908	-0.27899957
30	0x3da35b34	0.0797638
31	0x3fac7344	1.3472676
32	0xbdbe5bc0	-0.09294844
33	0x3e721ab5	0.23643
34	0xbda591a5	-0.0808442
35	0xbe08e65e	-0.13369128
36	0xbdf0f004	-0.11764529
37	0xbec9b014	-0.3939215
38	0x3f78d21f	0.9719562
39	0x3ef41119	0.47669294

enc.agg_4.out_linear_layer.weight f4 [20, 20]
0	0xbc3a33b5	-0.011364867
1	0xbe11cb62	-0.1423774
2	0x3e2345b5	0.1594456
3	0x3ca72b7f	0.020406483
4	0xbd6ce942	-0.05783964
5	0x3e68e0be	0.22741982
6	0x3e49e032	0.1971443
7	0xbe0d2cd8	-0.13786638
8	0xbda63037	-0.08114665
9	0xbd287849	-0.041130338
10	0x3d89a088	0.06720072
11	0x3dd992d5	0.10623709
12	0x3e0c9c87	0.13731585
13	0x3cafeecf	0.021476177
14	0x3e2d349a	0.16914597
15	0x3d1fe453	0.039036106
16	0x3e5987cd	0.2124321
17	0x3ca5621a	0.02018838
18	0xbbc20970	-0.005921535
19	0x3e0d6d1f	0.13811158
20	0x3e3bf9c8	0.18357003
21	0xbe19f9a9	-0.15036644
22	0x3cd294ba	0.025705684
23	0xbd9ec54d	-0.07752476
24	0x3d8f6ee2	0.07003571
25	0xbe403994	-0.18771964
26	0x3dbd25ee	0.0923575
27	0x3e506d8b	0.20354287
28	0x3d0fc71d	0.035102
29	0x3dc7332a	0.09726556
30	0x3cf9ef4d	0.030509615
31	0x3e0728ff	0.13199233
32	0xbc676268	-0.014122583
33	0xbe232b2a	-0.15934435
34	0xbdd74f7b	-0.105132066
35	0x3d321117	0.04347333
36	0xbe0f7223	-0.14008383
37	0xbc3e9fa0	-0.011634737
38	0x3e531659	0.20613994
39	0x3e23744c	0.15962332
40	0xbdf1a6ee	-0.117994174
41	0x3cbffc35	0.023435691
42	0xbd89aa17	-0.06721895
43	0xbdcd902f	-0.100372665
44	0xbdaaec5c	-0.08345863
45	0xbe4e3d58	-0.20140588
46	0xbbaef70b	-0.0053395084
47	0x3e4bbbac	0.1989581
48	0x3cb112ce	0.021615412
49	0xbe343e76	-0.17601952
50	0xbe1d77ba	-0.15377703
51	0xbe480be3	-0.19535784
52	0x3d907e23	0.07055309
53	0xbe3313e3	-0.17488055
54	0x3d53f3a4	0.051746026
55	0x3c09e4d5	0.008416374
56	0xbe428663	-0.18996577
57	0x3dc25827	0.0948947
58	0x3e37ebe0	0.17961073
59	0xbd53dc52	-0.051723786
60	0x3dfb010b	0.12256058
61	0x3dce1191	0.10061944
62	0x3e2c9b84	0.168562
63	0xbe43d9e9	-0.19126095
64	0x3d0892e1	0.0333432
65	0x3d2cef5b	0.042220455
66	0x3985b98d	0.00025505983
67	0x3d1798dd	0.037011016
68	0x3db1c63e	0.0868039
69	0xbd11cb1a	-0.035594083
70	0x3d14e1cf	0.03634816
71	0x3e11cf25	0.14239176
72	0x3dda39af	0.106555335
73	0x3e410426	0.18849239
74	0x3e002489	0.12513937
75	0xbd6ba7d7	-0.05753311
76	0xbdefae35	-0.11703149
77	0xbdbd8fd4	-0.09255949
78	0xbe00b578	-0.12569225
79	0xbe1e8cd4	-0.15483409
80	0x3db425e2	0.08796288
81	0xbb0ec967	-0.0021787526
82	0x3e46f12c	0.19427937
83	0xbdc80ea4	-0.097684175
84	0xbe381f02	-0.17980579
85	0xbd9293eb	-0.07157119
86	0xbde4c008	-0.111694396
87	0x3e3f9853	0.18710451
88	0xbd7778cc	-0.060417935
89	0x3e0b3735	0.13595279
90	0xbe442993	-0.19156484
91	0xbdb7b09c	-0.089692324
92	0x3e0757a7	0.1321703
93	0xbe04a620	-0.12953997
94	0x3e516f0c	0.20452517
95	0xbe3aab6e	-0.18229458
96	0xbe29b29c	-0.1657204
97	0xbc7cd744	-0.015432183
98	0x3d8f0241	0.06982852
99	0xbc5d9894	-0.013525147
100	0x3e4f2da7	0.20232259
101	0xbd9c3482	-0.076272026
102	0x3e3c68f6	0.18399414
103	0x3cf705e3	0.030154174
104	0x3e51cff7	0.20489489
105	0xbe338cd3	-0.17534189
106	0x3d4c00d7	0.04980549
107	0x3d6f00fa	0.05835054
108	0xbd03610b	-0.03207497
109	0x3e2e1ca0	0.17003107
110	0xbd9dc165	-0.07702903
111	0x3e316c1a	0.17326394
112	0xbc5bec4f	-0.01342304
113	0x3dbf8d58	0.09353131
114	0x3e2e9cd4	0.17052013
115	0xbdb9e1a1	-0.090762384
116	0xbcea35d4	-0.02859012
117	0x3dd6d5a2	0.10489966
118	0xbe422eb4	-0.18963128
119	0x3cd01422	0.025400225
120	0x3e5ae1f9	0.21375264
121	0xbe57abd7	-0.21061645
122	0x3c04eb2f	0.008112713
123	0xbd9940bd	-0.07483051
124	0x3e23e478	0.16005123
125	0x3c3dd832	0.0115871895
126	0x3e08ddfc	0.1336593
127	0x3e371214	0.1787799
128	0x3e3c62b6	0.1839703
129	0xbdd62c7f	-0.10457706
130	0x3e02abaa	0.12760797
131	0xbe512395	-0.2042373
132	0x3e4f37a8	0.20236075
133	0xbdc38c21	-0.09548212
134	0x3dd0e899	0.102006145
135	0x3da5d8c0	0.080979824
136	0xbd4e4340	-0.050357103
137	0x3e4332b9	0.19062318
138	0x3d8fc8e0	0.07020736
139	0x3de29d87	0.11065202
140	0xbe07f8e2	-0.13278535
141	0xbd79b945	-0.060967702
142	0xbe1be9fe	-0.1522598
143	0x3e220e42	0.15825751
144	0xbdee3d32	-0.11632766
145	0x3e14ee14	0.14543945
146	0x3de9ec7d	0.1142206
147	0xbd850998	-0.064959705
148	0xbd5d287d	-0.05399369
149	0xbe048df9	-0.12944783
150	0xbe4c1f8c	-0.19933909
151	0xbda99e32	-0.082821265
152	0xbd7560d5	-0.0599068
153	0xbe398b16	-0.18119463
154	0x3e2c5301	0.16828538
155	0xbe1cb14b	-0.15302007
156	0x3e0cae1f	0.13738297
157	0x3de58caa	0.1120847
158	0xbdfe8622	-0.124279276
159	0x3de387de	0.11109899
160	0x3d4e34fb	0.050343495
161	0xbdf4b3d1	-0.1194836
162	0x3e1672e4	0.14692265
163	0x3d8141d5	0.063113846
164	0xbe1f3426	-0.15547237
165	0xbe503166	-0.20331344
166	0x3c4a639d	0.012352851
167	0x3da4167f	0.08012103
168	0x3e47f169	0.19525684
169	0x3d80c2b6	0.06287138
170	0xbe3dce30	-0.18535686
171	0x3e1706e5	0.14748724
172	0xbcddeaad	-0.027089441
173	0xbd943faf	-0.07238709
174	0xbe21aa4c	-0.1578762
175	0xbdf3db05	-0.11907009
176	0x3e108f2f	0.1411712
177	0x3d16ec5c	0.036846504
178	0xbd70cf9b	-0.058791738
179	0xbd7facf8	-0.062420815
180	0xbd1c85f1	-0.038213674
181	0xbd928452	-0.07154144
182	0x3d965e05	0.073421516
183	0xbe315bc2	-0.17320159
184	0x3d72977b	0.059226494
185	0x3ddc3bec	0.10753617
186	0x3d2f9334	0.042864993
187	0x3ddcfdeb	0.107906185
188	0xbc9a821a	-0.018860865
189	0x3d8b07d0	0.067885995
190	0x3b6acde0	0.0035828277
191	0x3d2a1964	0.04152812
192	0xbdf6fd0b	-0.12059983
193	0xbde5d4ff	-0.112222664
194	0xbd2e86c9	-0.04260901
195	0x3e3a49b0	0.18192172
196	0xbda03143	-0.07821896
197	0xbe3c502e	-0.18389961
198	0x3dbcb029	0.092132874
199	0xbe1cf464	-0.15327603
200	0x3e2cf86c	0.1689164
201	0x3e2d9c95	0.16954263
202	0x3e0a7043	0.13519387
203	0xbe05428a	-0.13013664
204	0x3e39d779	0.18148603
205	0xbe01d3a2	-0.12678388
206	0xbe0e7525	-0.13911875
207	0x3d3e0378	0.046390027
208	0x3e1943b4	0.14967233
209	0xbe28391f	-0.1642804
210	0x3e241920	0.1602521
211	0x3e4b9287	0.19880114
212	0x3c881555	0.016611734
213	0xbe3ee345	-0.18641384
214	0x3c757b54	0.014983017
215	0xbe014994	-0.12625724
216	0xbe3bb97d	-0.18332477
217	0xbcdc5c3b	-0.026899448
218	0xbe3c78e7	-0.18405496
219	0xbe46c37b	-0.19410507
220	0xbd183594	-0.03716047
221	0x3d9bb6c4	0.07603219
222	0x3e1b75b8	0.15181625
223	0xbde1c936	-0.11024706
224	0xbe2d2a60	-0.16910696
225	0x3d53e0db	0.05172811
226	0x3e1a74d8	0.15083635
227	0x3e2d3ec9	0.16918482
228	0xbe4a5797	-0.19759975
229	0xbe038d41	-0.12846853
230	0x3d27b436	0.040943347
231	0x3d13cd82	0.03608466
232	0x3da1de15	0.07903687
233	0xbe02c90c	-0.12772006
234	0xbde98189	-0.1140166
235	0x3e3d4534	0.1848343
236	0x3e2ea5b8	0.17055404
237	0xbdc2b614	-0.09507385
238	0x3a57f60c	0.0008238263
239	0xbe356405	-0.17713936
240	0xbd69a5a4	-0.057042733
241	0x3c21fa12	0.009886282
242	0x3d8c2cbb	0.06844469
243	0xbcea1a64	-0.028577037
244	0x3dce85b0	0.100840926
245	0x3dde5f4a	0.10858019
246	0x3daa6e8c	0.083218664
247	0x3e131d07	0.14366542
248	0x3e4cb0e0	0.19989347
249	0x3df9ef34	0.122038275
250	0xbe4b5f09	-0.19860472
251	0x3e194da8	0.1497103
252	0x3daa44d9	0.08313913
253	0xbbf31842	-0.0074186632
254	0xbe08dabb	-0.13364689
255	0x3cc148dc	0.023594312

enc.agg_4.out_linear_layer.bias f4 [20]
0	0x3e552b64	0.20817333
1	0xbe21f210	-0.15814996
2	0x3da340b5	0.07971326
3	0x3d719822	0.058982976
4	0x3dd0ac3d	0.10189102
5	0xbdbf395d	-0.09337113
6	0x3d9fbf83	0.078002
7	0xbda84b68	-0.082175076
8	0x3e2f1162	0.17096475
9	0xbe158e7c	-0.14605135
10	0x3e276707	0.16347896
11	0xbcae2d4b	-0.021261832
12	0x3dbf3ac0	0.093373775
13	0x3e4e7a82	0.2016392
14	0x3e5c7b85	0.21531494
15	0xbe545aa6	-0.20737705
16	0xbc5e6e0b	-0.013576041
17	0xbe1d23dc	-0.1534571
18	0xbdbc5394	-0.09195629
19	0x3e010ab6	0.12601742

enc.agg_5.a f4 [40, 1]
0	0xbf571a7b	-0.8402478
1	0x3fd6326f	1.6734141
2	0x3f4c2dfa	0.79757655
3	0x3f4611c1	0.7737084
4	0x3e5ff1c8	0.21869576
5	0xbf01ad3a	-0.5065495
6	0x4043817b	3.0547779
7	0xbfe05197	-1.7524899
8	0x3f83e701	1.0304872
9	0xbf0d4cbb	-0.55195206
10	0x3f27b9ea	0.6551806
11	0x3fa533b6	1.2906406
12	0x3fd2e70e	1.6476762
13	0xbe0b08d6	-0.1357759
14	0xbf2305b6	-0.6368059
15	0xbf17d875	-0.5931466
16	0x3f15121b	0.5823075
17	0xbed906a0	-0.42387867
18	0xbf9a21ff	-1.2041625
19	0xbfeb97cf	-1.8405703
20	0x3ed0b1e5	0.40760723
21	0x3fdb8d9c	1.7152591
22	0x3d89f470	0.06736076
23	0x40065f22	2.0995564
24	0xbf35d1c0	-0.7102318
25	0x3f0dbcb8	0.55366087
26	0xbf6477ff	-0.892456
27	0x3be91fc5	0.007114383
28	0xbe1f55b3	-0.15560035
29	0x3e6878d4	0.22702342
30	0x3f5a1253	0.8518421
31	0x3fe8f0d5	1.8198496
32	0xbf815b41	-1.0105973
33	0x3f6d8033	0.9277374
34	0xbdf535b3	-0.11973133
35	0xc018a1d7	-2.384878
36	0x3fd835cb	1.6891416
37	0x3f1e194f	0.6175737
38	0x3e5627ea	0.20913664
39	0xbf37db62	-0.71819127

enc.agg_5.out_linear_layer.weight f4 [20, 20]
0	0xbde70a7c	-0.112812966
1	0xbda62572	-0.08112611
2	0x3dd6a87e	0.10481356
3	0xb9e95e5e	-0.00044511532
4	0x3e0b1d58	0.13585413
5	0x3d5e76c2	0.054312475
6	0xbdd03eb6	-0.10168211
7	0x3db0dbc9	0.08635671
8	0xbcf7e9e8	-0.030262902
9	0x3cfb5a4f	0.03068271
10	0x3cb56145	0.022141108
11	0x3e1d28dd	0.1534762
12	0x3c66eb40	0.014094174
13	0x3d8e49af	0.06947648
14	0x3d4448be	0.047920935
15	0x3da8eb80	0.08248043
16	0xbd1d5fea	-0.03842155
17	0x3cdd6aaf	0.02702841
18	0xbd87a5a6	-0.06623392
19	0xbe0feab3	-0.14054374
20	0x3c89241f	0.016740857
21	0x3d1a4e27	0.037672188
22	0xbd9c7488	-0.07639414
23	0x3d049791	0.032371107
24	0x3e379e9a	0.17931595
25	0xbd6aa8bd	-0.057289828
26	0x3de711b0	0.112826705
27	0xbcc04dec	-0.023474656
28	0xbe2fc74b	-0.17165868
29	0xbda073b2	-0.07834567
30	0xbdc68666	-0.09693603
31	0x3d758ddf	0.059949752
32	0xbdf74225	-0.12073163
33	0xbe15e5bd	-0.1463842
34	0x3de3f549	0.11130769
35	0x3dbe1723	0.09281757
36	0x3d043ce1	0.03228462
37	0xbdf2e360	-0.118597746
38	0xbd6cc744	-0.057807222
39	0x3ce4b156	0.027916592
40	0xbdd62f68	-0.10458261
41	0x3be98053	0.007125893
42	0x3e2eaae2	0.17057374
43	0xbbd97937	-0.0066367644
44	0xbe12b07f	-0.1432514
45	0x3e32bfab	0.17455928
46	0x3e1a8b07	0.15092097
47	0x3df6b8ad	0.12046943
48	0x3e2d324d	0.1691372
49	0x3cd50c85	0.026006946
50	0x3e4409e6	0.19144401
51	0xbd07d6a9	-0.0331637
52	0xbcc15e4f	-0.02360454
53	0x3e54b091	0.2077048
54	0xbc1673c2	-0.009182872
55	0x3d583af2	0.05279059
56	0xbd5296ef	-0.051413473
57	0xbe341f32	-0.17590025
58	0xbcb96847	-0.022632731
59	0x3dfb7082	0.122773185
60	0x3c1401a2	0.009033592
61	0xbdb1c7d7	-0.086806946
62	0x3e45f155	0.19330342
63	0xbe262b15	-0.16227372
64	0x3d73ada3	0.059491765
65	0xbe26844d	-0.16261406
66	0x3ddc0af4	0.10744277
67	0x3e4ef6b0	0.20211291
68	0xbe57ce1e	-0.21074721
69	0xbc528fa8	-0.012851633
70	0xbdf872f0	-0.121312976
71	0x3b59d516	0.0033238581
72	0xbdcffa78	-0.10155195
73	0xbe5325d7	-0.20619904
74	0x3d9d5e6a	0.07684024
75	0x3d8f66fc	0.070020646
76	0x3c8c5cec	0.017134152
77	0x3e4410dd	0.19147058
78	0xbe33027b	-0.17481415
79	0xbd955b77	-0.07292836
80	0xbcd3af1a	-0.02584033
81	0x3e19f714	0.15035659
82	0x3e0f2d39	0.13982095
83	0xbcbd6290	-0.023118287
84	0xbe46144a	-0.19343677
85	0xbd42cc7b	-0.04755829
86	0x3e1eec07	0.15519725
87	0xbe61be95	-0.22045358
88	0x3dfdc0a7	0.12390261
89	0x3e17a33f	0.14808367
90	0xbd6da623	-0.05801977
91	0x3d0e812e	0.034791164
92	0x3d9db7ce	0.077010736
93	0xbd977d44	-0.073969394
94	0xbdff6912	-0.124712124
95	0xbdf9d200	-0.121982574
96	0xbe40d431	-0.18830945
97	0x3d7da878	0.061928242
98	0xbdae91bd	-0.08523891
99	0xbe51b908	-0.2048074
100	0x3e0e6e24	0.13909203
101	0x3d0d488d	0.034493018
102	0xbe1e34d2	-0.15449837
103	0xbdcc3f75	-0.09973041
104	0xbc14373b	-0.009046371
105	0xbe2d6c34	-0.16935807
106	0x3e240183	0.16016202
107	0xbd4623c8	-0.048373967
108	0xbe3d5a57	-0.18491493
109	0xbd842912	-0.06453146
110	0xbc953e80	-0.018218279
111	0x3e24359b	0.16036074
112	0xbd560fb8	-0.052261084
113	0x3e1d5f7c	0.15368456
114	0xbdbc99ea	-0.09209044
115	0xbbfb29ce	-0.0076648956
116	0x3e3bb292	0.18329838
117	0x3d926548	0.07148224
118	0x3b006e4c	0.0019596992
119	0x3e1f72a1	0.15571071
120	0x3e232e57	0.15935646
121	0x3d42e376	0.047580205
122	0x3c95e51a	0.01829772
123	0xbc2425f7	-0.010018817
124	0xbc993ac4	-0.01870478
125	0x3e48e69e	0.19619223
126	0xbddf10b3	-0.10891857
127	0xbd939a98	-0.07207221
128	0x3d92a716	0.07160775
129	0xbd331d33	-0.04372902
130	0xbe20da43	-0.1570826
131	0x3cc4972b	0.023997864
132	0x39bbdca3	0.00035831807
133	0xbe359062	-0.17730859
134	0x3dcf5cee	0.10125147
135	0xbdd2d441	-0.102943905
136	0xbc1d73a2	-0.009610089
137	0xbddd085a	-0.107926086
138	0xbdb8dc44	-0.09026387
139	0xbdc9ffdc	-0.098632544
140	0xbe0b3803	-0.13595586
141	0xbc27150f	-0.010197892
142	0x3cc522f8	0.024064526
143	0xb951f292	-0.00020022158
144	0xbd9b2a4e	-0.07576428
145	0x3e12c797	0.1433395
146	0xbe00375f	-0.12521122
147	0x3c43bef2	0.01194738
148	0x3d399be6	0.045314692
149	0x3d028846	0.03186824
150	0x3deafd30	0.11474073
151	0xbe3d2fb5	-0.1847523
152	0xbd615fb4	-0.05502291
153	0x3e339fa7	0.17541371
154	0x3e1a35b9	0.15059556
155	0x3d2efe8c	0.042723224
156	0x3dac06e2	0.0839975
157	0xbde31ea5	-0.11089829
158	0xbda27557	-0.07932537
159	0xbb72827f	-0.0037004051
160	0xbe52b42f	-0.20576547
161	0xbe2e84ee	-0.17042896
162	0x3d05e9c2	0.032693632
163	0xbcf56bdf	-0.029958664
164	0x3dddfdd0	0.108394265
165	0xbdd566e4	-0.104200155
166	0x3ddca8e2	0.10774399
167	0xbe46a5af	-0.19399141
168	0xbe1e6095	-0.1546653
169	0x3c6bc285	0.014389639
170	0x3c9203ae	0.01782402
171	0x3e029aed	0.12754412
172	0x3d4d23a6	0.050082825
173	0x3d83c7a0	0.0643456
174	0x3e1fe624	0.15615135
175	0x3de5a5cb	0.11213263
176	0xbdf92f24	-0.121671945
177	0xbbabb310	-0.005239852
178	0xbcf5d521	-0.030008854
179	0xbdbca069	-0.09210283
180	0xbc83a3aa	-0.016069252
181	0xbc9224d2	-0.017839823
182	0x3e0c6114	0.13708907
183	0xbe22cbc5	-0.15898044
184	0xbdf498a7	-0.119431786
185	0x3e2be5f7	0.16786943
186	0x3e22a8d5	0.15884717
187	0xbcfc88fe	-0.030827042
188	0x3d47dbf4	0.048793748
189	0xbd0c8edf	-0.03431594
190	0x3e087e76	0.13329491
191	0xbe23e2f2	-0.16004542
192	0x3d95191a	0.07280178
193	0x3e08b0df	0.13348721
194	0xbe08f463	-0.13374476
195	0x3e3157a8	0.17318594
196	0xbe40aaa3	-0.18815093
197	0x3e437b55	0.19090016
198	0x3d00ab46	0.03141334
199	0xbdda1b84	-0.106497794
200	0xbb774b17	-0.0037733966
201	0xbe2c056b	-0.16798942
202	0x3dc033a1	0.093848474
203	0xbdbf11e6	-0.09329586
204	0xbe1a35a8	-0.1505953
205	0x3d18a5b7	0.037267413
206	0xbe1b1a23	-0.15146689
207	0xbdaa585d	-0.08317635
208	0xbe3d42dd	-0.18482538
209	0x3e2f353d	0.17110153
210	0xbe21dd32	-0.15807036
211	0xbc5de30b	-0.013542901
212	0x3e215e87	0.15758716
213	0x3da07d1e	0.07836364
214	0xbd18d284	-0.03731014
215	0x3e40477e	0.18777272
216	0xbe5c6f79	-0.21526898
217	0xbd9e0acf	-0.07716905
218	0xbdf3b0a1	-0.11898924
219	0x3e3801fa	0.17969504
220	0x3c889ab4	0.01667533
221	0x3e11cf4e	0.14239237
222	0x3dee0343	0.11621716
223	0xbd5dbd0f	-0.05413538
224	0x3daf173d	0.08549354
225	0x3e008952	0.12552384
226	0xbc34c548	-0.011033364
227	0x3e06d21b	0.13166086
228	0xbe0b7707	-0.13619624
229	0x3d907be8	0.07054883
230	0xbd4e0647	-0.050298955
231	0xbe47a16f	-0.19495176
232	0xbdcde879	-0.10054106
233	0x3de38839	0.11109967
234	0x3e11ec3b	0.14250271
235	0x3da92383	0.082587264
236	0xbe07d908	-0.13266385
237	0xbe2483ee	-0.16065952
238	0x3d09af8f	0.03361469
239	0xbdd3c9fd	-0.103412606
240	0xbe4d6494	-0.20057899
241	0x3dc076e0	0.093976736
242	0x3dd184d3	0.10230412
243	0x3d88a734	0.066725165
244	0x3d213942	0.039361246
245	0xbe04063a	-0.12893
246	0x3d0f165f	0.034933444
247	0x3dc2d599	0.09513397
248	0xbd27893b	-0.040902358
249	0xbd8e5acc	-0.06950912
250	0xbc00671e	-0.007837085
251	0x3df9abfb	0.12191006
252	0xbd0cf007	-0.034408595
253	0xbd8b5edb	-0.068052016
254	0xbe48e6ee	-0.19619343
255	0x3e3d04aa	0.1845881

enc.agg_5.out_linear_layer.bias f4 [20]
0	0xbdfa5841	-0.12223864
1	0xbbdad87b	-0.0066786385
2	0xbb5791ab	-0.0032893221
3	0x3d9d573a	0.07682653
4	0x3e358f70	0.17730498
5	0x3e4e4ed2	0.20147255
6	0xbd9f59a2	-0.07780768
7	0x3d639bed	0.055568624
8	0xbe28fad1	-0.16501929
9	0xbda21526	-0.0791419
10	0x3ce27368	0.02764292
11	0xbd85636f	-0.06513106
12	0x3d86a716	0.06574838
13	0xbd40348e	-0.04692512
14	0xbe36ed74	-0.17864019
15	0x3e566ac6	0.20939168
16	0x3cb74bf8	0.022375092
17	0xbc16c159	-0.009201371
18	0x3c8c8988	0.017155424
19	0xbe63dfab	-0.22253291
